…
stage1_aux.3.bias has no weight decay
stage2_aux.0.conv.weight USE weight decay
stage2_aux.0.bn.weight has no weight decay
stage2_aux.0.bn.bias has no weight decay
stage2_aux.3.weight USE weight decay
stage2_aux.3.bias has no weight decay
stage3_first_aux.0.conv.weight USE weight decay
stage3_first_aux.0.bn.weight has no weight decay
stage3_first_aux.0.bn.bias has no weight decay
stage3_first_aux.3.weight USE weight decay
stage3_first_aux.3.bias has no weight decay
[2025-01-22 13:35:48 RepVGGplus-L2pse](main.py 85): INFO RepVGGplus(
  (stage0): RepVGGplusBlock(
    (nonlinearity): ReLU()
    (post_se): SEBlock(
      (down): Conv2d(64, 16, kernel_size=(1, 1), stride=(1, 1))
      (up): Conv2d(16, 64, kernel_size=(1, 1), stride=(1, 1))
    )
    (rbr_dense): Sequential(
      (conv): Conv2d(3, 64, kernel_size=(3, 3), stride=(2, 2), padding=(1, 1), bias=False)
      (bn): BatchNorm2d(64, eps=1e-05, momentum=0.1, affine=True, track_running_stats=True)
    )
    (rbr_1x1): Sequential(
      (conv): Conv2d(3, 64, kernel_size=(1, 1), stride=(2, 2), bias=False)
      (bn): BatchNorm2d(64, eps=1e-05, momentum=0.1, affine=True, track_running_stats=True)
    )
  )
  (stage1): RepVGGplusStage(
    (blocks): ModuleList(
      (0): RepVGGplusBlock(
        (nonlinearity): ReLU()
        (post_se): SEBlock(
          (down): Conv2d(160, 40, kernel_size=(1, 1), stride=(1, 1))
          (up): Conv2d(40, 160, kernel_size=(1, 1), stride=(1, 1))
        )
        (rbr_dense): Sequential(
          (conv): Conv2d(64, 160, kernel_size=(3, 3), stride=(2, 2), padding=(1, 1), bias=False)
          (bn): BatchNorm2d(160, eps=1e-05, momentum=0.1, affine=True, track_running_stats=True)
        )
        (rbr_1x1): Sequential(
          (conv): Conv2d(64, 160, kernel_size=(1, 1), stride=(2, 2), bias=False)
          (bn): BatchNorm2d(160, eps=1e-05, momentum=0.1, affine=True, track_running_stats=True)
        )
      )
      (1-7): 7 x RepVGGplusBlock(
        (nonlinearity): ReLU()
        (post_se): SEBlock(
          (down): Conv2d(160, 40, kernel_size=(1, 1), stride=(1, 1))
          (up): Conv2d(40, 160, kernel_size=(1, 1), stride=(1, 1))
        )
        (rbr_identity): BatchNorm2d(160, eps=1e-05, momentum=0.1, affine=True, track_running_stats=True)
        (rbr_dense): Sequential(
          (conv): Conv2d(160, 160, kernel_size=(3, 3), stride=(1, 1), padding=(1, 1), bias=False)
          (bn): BatchNorm2d(160, eps=1e-05, momentum=0.1, affine=True, track_running_stats=True)
        )
        (rbr_1x1): Sequential(
          (conv): Conv2d(160, 160, kernel_size=(1, 1), stride=(1, 1), bias=False)
          (bn): BatchNorm2d(160, eps=1e-05, momentum=0.1, affine=True, track_running_stats=True)
        )
      )
    )
  )
  (stage2): RepVGGplusStage(
    (blocks): ModuleList(
      (0): RepVGGplusBlock(
        (nonlinearity): ReLU()
        (post_se): SEBlock(
          (down): Conv2d(320, 80, kernel_size=(1, 1), stride=(1, 1))
          (up): Conv2d(80, 320, kernel_size=(1, 1), stride=(1, 1))
        )
        (rbr_dense): Sequential(
          (conv): Conv2d(160, 320, kernel_size=(3, 3), stride=(2, 2), padding=(1, 1), bias=False)
          (bn): BatchNorm2d(320, eps=1e-05, momentum=0.1, affine=True, track_running_stats=True)
        )
        (rbr_1x1): Sequential(
          (conv): Conv2d(160, 320, kernel_size=(1, 1), stride=(2, 2), bias=False)
          (bn): BatchNorm2d(320, eps=1e-05, momentum=0.1, affine=True, track_running_stats=True)
        )
      )
      (1-13): 13 x RepVGGplusBlock(
        (nonlinearity): ReLU()
        (post_se): SEBlock(
          (down): Conv2d(320, 80, kernel_size=(1, 1), stride=(1, 1))
          (up): Conv2d(80, 320, kernel_size=(1, 1), stride=(1, 1))
        )
        (rbr_identity): BatchNorm2d(320, eps=1e-05, momentum=0.1, affine=True, track_running_stats=True)
        (rbr_dense): Sequential(
          (conv): Conv2d(320, 320, kernel_size=(3, 3), stride=(1, 1), padding=(1, 1), bias=False)
          (bn): BatchNorm2d(320, eps=1e-05, momentum=0.1, affine=True, track_running_stats=True)
        )
        (rbr_1x1): Sequential(
          (conv): Conv2d(320, 320, kernel_size=(1, 1), stride=(1, 1), bias=False)
          (bn): BatchNorm2d(320, eps=1e-05, momentum=0.1, affine=True, track_running_stats=True)
        )
      )
    )
  )
  (stage3_first): RepVGGplusStage(
    (blocks): ModuleList(
      (0): RepVGGplusBlock(
        (nonlinearity): ReLU()
        (post_se): SEBlock(
          (down): Conv2d(640, 160, kernel_size=(1, 1), stride=(1, 1))
          (up): Conv2d(160, 640, kernel_size=(1, 1), stride=(1, 1))
        )
        (rbr_dense): Sequential(
          (conv): Conv2d(320, 640, kernel_size=(3, 3), stride=(2, 2), padding=(1, 1), bias=False)
          (bn): BatchNorm2d(640, eps=1e-05, momentum=0.1, affine=True, track_running_stats=True)
        )
        (rbr_1x1): Sequential(
          (conv): Conv2d(320, 640, kernel_size=(1, 1), stride=(2, 2), bias=False)
          (bn): BatchNorm2d(640, eps=1e-05, momentum=0.1, affine=True, track_running_stats=True)
        )
      )
      (1-11): 11 x RepVGGplusBlock(
        (nonlinearity): ReLU()
        (post_se): SEBlock(
          (down): Conv2d(640, 160, kernel_size=(1, 1), stride=(1, 1))
          (up): Conv2d(160, 640, kernel_size=(1, 1), stride=(1, 1))
        )
        (rbr_identity): BatchNorm2d(640, eps=1e-05, momentum=0.1, affine=True, track_running_stats=True)
        (rbr_dense): Sequential(
          (conv): Conv2d(640, 640, kernel_size=(3, 3), stride=(1, 1), padding=(1, 1), bias=False)
          (bn): BatchNorm2d(640, eps=1e-05, momentum=0.1, affine=True, track_running_stats=True)
        )
        (rbr_1x1): Sequential(
          (conv): Conv2d(640, 640, kernel_size=(1, 1), stride=(1, 1), bias=False)
          (bn): BatchNorm2d(640, eps=1e-05, momentum=0.1, affine=True, track_running_stats=True)
        )
      )
    )
  )
  (stage3_second): RepVGGplusStage(
    (blocks): ModuleList(
      (0-11): 12 x RepVGGplusBlock(
        (nonlinearity): ReLU()
        (post_se): SEBlock(
          (down): Conv2d(640, 160, kernel_size=(1, 1), stride=(1, 1))
          (up): Conv2d(160, 640, kernel_size=(1, 1), stride=(1, 1))
        )
        (rbr_identity): BatchNorm2d(640, eps=1e-05, momentum=0.1, affine=True, track_running_stats=True)
        (rbr_dense): Sequential(
          (conv): Conv2d(640, 640, kernel_size=(3, 3), stride=(1, 1), padding=(1, 1), bias=False)
          (bn): BatchNorm2d(640, eps=1e-05, momentum=0.1, affine=True, track_running_stats=True)
        )
        (rbr_1x1): Sequential(
          (conv): Conv2d(640, 640, kernel_size=(1, 1), stride=(1, 1), bias=False)
          (bn): BatchNorm2d(640, eps=1e-05, momentum=0.1, affine=True, track_running_stats=True)
        )
      )
    )
  )
  (stage4): RepVGGplusStage(
    (blocks): ModuleList(
      (0): RepVGGplusBlock(
        (nonlinearity): ReLU()
        (post_se): SEBlock(
          (down): Conv2d(2560, 640, kernel_size=(1, 1), stride=(1, 1))
          (up): Conv2d(640, 2560, kernel_size=(1, 1), stride=(1, 1))
        )
        (rbr_dense): Sequential(
          (conv): Conv2d(640, 2560, kernel_size=(3, 3), stride=(2, 2), padding=(1, 1), bias=False)
          (bn): BatchNorm2d(2560, eps=1e-05, momentum=0.1, affine=True, track_running_stats=True)
        )
        (rbr_1x1): Sequential(
          (conv): Conv2d(640, 2560, kernel_size=(1, 1), stride=(2, 2), bias=False)
          (bn): BatchNorm2d(2560, eps=1e-05, momentum=0.1, affine=True, track_running_stats=True)
        )
      )
    )
  )
  (gap): AdaptiveAvgPool2d(output_size=1)
  (flatten): Flatten(start_dim=1, end_dim=-1)
  (linear): Linear(in_features=2560, out_features=1000, bias=True)
  (stage1_aux): Sequential(
    (0): Sequential(
      (conv): Conv2d(160, 160, kernel_size=(3, 3), stride=(2, 2), padding=(1, 1), bias=False)
      (bn): BatchNorm2d(160, eps=1e-05, momentum=0.1, affine=True, track_running_stats=True)
      (relu): ReLU()
    )
    (1): AdaptiveAvgPool2d(output_size=1)
    (2): Flatten(start_dim=1, end_dim=-1)
    (3): Linear(in_features=160, out_features=1000, bias=True)
  )
  (stage2_aux): Sequential(
    (0): Sequential(
      (conv): Conv2d(320, 320, kernel_size=(3, 3), stride=(2, 2), padding=(1, 1), bias=False)
      (bn): BatchNorm2d(320, eps=1e-05, momentum=0.1, affine=True, track_running_stats=True)
      (relu): ReLU()
    )
    (1): AdaptiveAvgPool2d(output_size=1)
    (2): Flatten(start_dim=1, end_dim=-1)
    (3): Linear(in_features=320, out_features=1000, bias=True)
  )
  (stage3_first_aux): Sequential(
    (0): Sequential(
      (conv): Conv2d(640, 640, kernel_size=(3, 3), stride=(2, 2), padding=(1, 1), bias=False)
      (bn): BatchNorm2d(640, eps=1e-05, momentum=0.1, affine=True, track_running_stats=True)
      (relu): ReLU()
    )
    (1): AdaptiveAvgPool2d(output_size=1)
    (2): Flatten(start_dim=1, end_dim=-1)
    (3): Linear(in_features=640, out_features=1000, bias=True)
  )
)
[2025-01-22 13:35:49 RepVGGplus-L2pse](main.py 101): INFO number of params: 146062864
[2025-01-22 13:35:49 RepVGGplus-L2pse](main.py 149): INFO Start training
[2025-01-22 13:35:56 RepVGGplus-L2pse](main.py 280): INFO Train: [0/1][0/10009]	eta 20:53:14 lr 0.002500	time 7.5127 (7.5127)	loss 8.9721 (8.9721)	grad_norm 1770894.2395 (1770894.2395)	mem 8653MB
…
